…
W0212 17:55:44.937708 140310984558336 deprecation.py:323] From /home/zhaoci/anaconda3/lib/python3.7/site-packages/tensorflow/python/ops/nn_impl.py:180: add_dispatch_support.<locals>.wrapper (from tensorflow.python.ops.array_ops) is deprecated and will be removed in a future version.
Instructions for updating:
Use tf.where in 2.0, which has the same broadcast rule as np.where
Model: "sequential_1"
_________________________________________________________________
Layer (type)                 Output Shape              Param #   
=================================================================
conv2d_1 (Conv2D)            (None, 186, 27, 8)        1360      
_________________________________________________________________
batch_normalization_1 (Batch (None, 186, 27, 8)        32        
_________________________________________________________________
activation_1 (Activation)    (None, 186, 27, 8)        0         
_________________________________________________________________
conv2d_2 (Conv2D)            (None, 174, 15, 8)        10824     
_________________________________________________________________
batch_normalization_2 (Batch (None, 174, 15, 8)        32        
_________________________________________________________________
activation_2 (Activation)    (None, 174, 15, 8)        0         
_________________________________________________________________
max_pooling2d_1 (MaxPooling2 (None, 87, 15, 8)         0         
_________________________________________________________________
conv2d_3 (Conv2D)            (None, 75, 3, 8)          10824     
_________________________________________________________________
batch_normalization_3 (Batch (None, 75, 3, 8)          32        
_________________________________________________________________
activation_3 (Activation)    (None, 75, 3, 8)          0         
_________________________________________________________________
conv2d_4 (Conv2D)            (None, 74, 2, 8)          264       
_________________________________________________________________
batch_normalization_4 (Batch (None, 74, 2, 8)          32        
_________________________________________________________________
activation_4 (Activation)    (None, 74, 2, 8)          0         
_________________________________________________________________
max_pooling2d_2 (MaxPooling2 (None, 37, 2, 8)          0         
_________________________________________________________________
flatten_1 (Flatten)          (None, 592)               0         
_________________________________________________________________
dense_1 (Dense)              (None, 64)                37952     
_________________________________________________________________
batch_normalization_5 (Batch (None, 64)                256       
_________________________________________________________________
activation_5 (Activation)    (None, 64)                0         
_________________________________________________________________
dropout_1 (Dropout)          (None, 64)                0         
_________________________________________________________________
dense_2 (Dense)              (None, 4)                 260       
=================================================================
Total params: 61,868
Trainable params: 61,676
Non-trainable params: 192
_________________________________________________________________
None
Epoch 1/1
2020-02-12 17:55:47.130676: I tensorflow/stream_executor/platform/default/dso_loader.cc:42] Successfully opened dynamic library libcublas.so.10.0
2020-02-12 17:55:47.378670: I tensorflow/stream_executor/platform/default/dso_loader.cc:42] Successfully opened dynamic library libcudnn.so.7
…
W0212 18:12:10.694630 140506626885376 deprecation.py:323] From /home/zhaoci/anaconda3/lib/python3.7/site-packages/tensorflow/python/ops/nn_impl.py:180: add_dispatch_support.<locals>.wrapper (from tensorflow.python.ops.array_ops) is deprecated and will be removed in a future version.
Instructions for updating:
Use tf.where in 2.0, which has the same broadcast rule as np.where
Model: "sequential_1"
_________________________________________________________________
Layer (type)                 Output Shape              Param #   
=================================================================
lstm_1 (LSTM)                (None, 128)               86016     
_________________________________________________________________
dropout_1 (Dropout)          (None, 128)               0         
_________________________________________________________________
dense_1 (Dense)              (None, 32)                4128      
_________________________________________________________________
dense_2 (Dense)              (None, 16)                528       
_________________________________________________________________
dense_3 (Dense)              (None, 4)                 68        
=================================================================
Total params: 90,740
Trainable params: 90,740
Non-trainable params: 0
_________________________________________________________________
None
Epoch 1/1
2020-02-12 18:12:11.820157: I tensorflow/core/platform/cpu_feature_guard.cc:142] Your CPU supports instructions that this TensorFlow binary was not compiled to use: AVX2 FMA
2020-02-12 18:12:11.838511: I tensorflow/core/platform/profile_utils/cpu_utils.cc:94] CPU Frequency: 2195210000 Hz
…
